data/grocery-category-model.tflite (tflite, 70952 bytes, 5 tensors)

arith.constant f4 [15, 16]
0	0xbea6f594	-0.32609236
1	0x3eaf938a	0.3429225
2	0xbfa63eee	-1.2987955
3	0x3ee16207	0.440201
4	0x3f04758b	0.51741856
5	0x3d022af1	0.031779233
6	0x3f3a4c6a	0.7277285
7	0x3f6dc8a6	0.9288429
8	0x3f09a30d	0.5376442
9	0xbf548a64	-0.8302367
10	0x3f509f6f	0.81493276
11	0x3d8fb203	0.07016375
12	0xbfde1ca1	-1.7352487
13	0xc01e756d	-2.475917
14	0x3f5f0456	0.8711599
15	0xc0013d64	-2.019372
16	0xbf845a31	-1.0340024
17	0x3f04019f	0.51564974
18	0x3f713805	0.94226104
19	0xbf8a4a31	-1.0803891
20	0x3dba1b19	0.090872
21	0xc0100de7	-2.2508485
22	0x3f99cfca	1.2016537
23	0xbf8538d8	-1.0407972
24	0xc000a943	-2.010331
25	0x3ef58049	0.47949436
26	0x3edb4c6d	0.42831746
27	0xbfb3ad1f	-1.4037207
28	0xbf1f46ea	-0.6221758
29	0xbf9b996b	-1.2156194
30	0x3fad87a6	1.3557022
31	0xbfacd198	-1.3501463
32	0xbfee929f	-1.8638495
33	0x3ee5b850	0.44867182
34	0xbe56a2eb	-0.20960586
35	0xc010bb8e	-2.2614474
36	0x3f9c639f	1.2217902
37	0xbfb13966	-1.3845642
38	0xbfed957e	-1.8561246
39	0x3db0acec	0.08626732
40	0x3f513773	0.81725234
41	0x3f16bc9c	0.58881545
42	0x3f94bcc5	1.1620108
43	0x3f326bdc	0.6969583
44	0xbffa6d34	-1.9564576
45	0xbf3b6cba	-0.7321278
46	0x3e467c94	0.1938346
47	0x3e7904e6	0.24318275
48	0xc006089c	-2.0942755
49	0xbfe00a32	-1.7503111
50	0xbfb8e307	-1.4444283
51	0xbecad560	-0.39615917
52	0x3fb28b2a	1.394872
53	0x3f989750	1.1921177
54	0xbf83b467	-1.028943
55	0xbe8c7e2c	-0.27440012
56	0xbfb84029	-1.439458
57	0xbf2ac6de	-0.667097
58	0x3fcc9a9a	1.5984681
59	0xbf3af2c9	-0.7302671
60	0xbe2be386	-0.16786012
61	0xc0283d52	-2.6287427
62	0x3f8c0842	1.094002
63	0xbffada70	-1.9597912
64	0x3fa3f489	1.2809001
65	0x3f6cf84d	0.92566377
66	0xbf3ebd69	-0.74507767
67	0xbfd208c8	-1.640893
68	0x3ebdb0f8	0.3704908
69	0x3eb5f92e	0.35541672
70	0xbfd4490d	-1.6584793
71	0x3fa1f350	1.2652378
72	0x3fc98e86	1.574662
73	0x3e4e8ba3	0.20170455
74	0xbfb89e32	-1.4423277
75	0x3fa6930d	1.3013626
76	0xbfd95885	-1.6980139
77	0xbf9d6397	-1.2296017
78	0xbe39744d	-0.18110771
79	0xbfd3917c	-1.6528773
80	0xbfbc2cfc	-1.4701228
81	0x3eaffc99	0.34372404
82	0x3f162541	0.58650595
83	0xbe3283eb	-0.17433135
84	0xbfe91244	-1.8208699
85	0xbd7614bb	-0.060078364
86	0xbf8efe04	-1.117127
87	0x3eef1a2e	0.4669966
88	0xc0251640	-2.579483
89	0x3f46e6fc	0.77696204
90	0xbfa511cc	-1.2896056
91	0x3e8f9ea9	0.28050736
92	0x3e35c92c	0.17752522
93	0xbd07a754	-0.03311856
94	0x3d713b85	0.058894653
95	0x3f15e7c1	0.58556753
96	0xbf5e0e6d	-0.8674076
97	0xbfb0b8d7	-1.3806409
98	0xbf2b5557	-0.66927093
99	0x3f695690	0.9114771
100	0xbffde416	-1.9835231
101	0x3ddd42a5	0.10803727
102	0x3f848b1a	1.035495
103	0xbf9f38ea	-1.2439244
104	0xbed83991	-0.4223142
105	0xbfbf601c	-1.4951205
106	0xc002276d	-2.0336564
107	0xbe03bb16	-0.12864336
108	0x3fa73757	1.3063763
109	0x3f3b3389	0.7312551
110	0xc014d8a1	-2.325722
111	0x3f9feffe	1.2495115
112	0x3df708f1	0.12062252
113	0x3f82f984	1.0232396
114	0x3f94df5f	1.1630667
115	0xc010a7a8	-2.260233
116	0xbf9d14ba	-1.227195
117	0xc006a7dd	-2.1039956
118	0x3e825070	0.25451994
119	0xbf17a5f8	-0.59237623
120	0x3ea2aea4	0.31773865
121	0x3f6fbe13	0.93649405
122	0xbef9f878	-0.4882238
123	0x3f16c873	0.5889961
124	0xbfe2e6ea	-1.7726719
125	0xbe2132b7	-0.15742002
126	0x3f017327	0.50566334
127	0xbfc0eb2a	-1.5071766
128	0xbf4df0ca	-0.8044554
129	0xbee00b41	-0.43758586
130	0x3f592139	0.8481632
131	0x3ec0f8ff	0.3768997
132	0xbfe777dc	-1.8083453
133	0x3ddf1ff9	0.1089477
134	0x3f5615ac	0.8362682
135	0xbffa9efe	-1.957977
136	0xbfd24a26	-1.6428878
137	0xbfd6a3fc	-1.6768794
138	0xbf88e7f3	-1.0695785
139	0xc010e8ab	-2.264201
140	0x3f591749	0.84801155
141	0x3e6d4b0b	0.23173158
142	0x3f3362af	0.70072454
143	0x3e394aa0	0.18094873
144	0xbfc92901	-1.5715638
145	0xbf1f7ed2	-0.6230289
146	0xbfb7db15	-1.4363734
147	0xbde8ef01	-0.113737114
148	0x3f4861cc	0.78274226
149	0x3f6cd4fd	0.92512494
150	0xbfa0fb16	-1.2576625
151	0x3f824c9e	1.0179632
152	0x3dd95aac	0.106129974
153	0x3eb48678	0.35258842
154	0xbe1aaa70	-0.15104079
155	0x3f3dcde5	0.74142295
156	0xbf5e7b90	-0.8690729
157	0x3d8e117b	0.06936928
158	0x3e0ce8c8	0.13760674
159	0xbe9a8986	-0.30183047
160	0xbd356d48	-0.04429367
161	0x3f871929	1.0554553
162	0x3edaf2de	0.42763418
163	0x3f0d2167	0.5512909
164	0xbffb9455	-1.9654642
165	0xbfa3fc3d	-1.2811352
166	0xbfe2a95b	-1.7707933
167	0x3f7b31e1	0.98122984
168	0x3f24753d	0.6424139
169	0xbea531f1	-0.32264665
170	0xbfd75fd6	-1.6826122
171	0x3f9ab927	1.2087754
172	0xbf12e81b	-0.57385415
173	0xbfbe72da	-1.48788
174	0xbf938ee7	-1.1527985
175	0x3f1a30b2	0.60230553
176	0x3e8c60b1	0.2741752
177	0xbf447ffd	-0.76757795
178	0x3f9e7cb5	1.2381808
179	0xbfcc0bf7	-1.5941151
180	0xbfa2f4fc	-1.2731013
181	0xbea3cd13	-0.31992397
182	0xbf3ceaf9	-0.7379604
183	0xbf99c7af	-1.2014064
184	0xc0098771	-2.1488917
185	0x3eee6f12	0.46569115
186	0xc00b9d12	-2.1814618
187	0x3ec1fff2	0.37890583
188	0x3ec97c7b	0.39352784
189	0x3f8f9f50	1.1220493
190	0xbfe26920	-1.7688332
191	0x3f5ccaa7	0.8624672
192	0xbfbc9152	-1.4731848
193	0xc014010a	-2.3125634
194	0xbf9454c2	-1.1588366
195	0x3c980f53	0.018561995
196	0x3f827ad8	1.0193739
197	0x3f399bfc	0.7250364
198	0x3f2f807e	0.6855544
199	0xbfacc77f	-1.3498381
200	0xbf5ee074	-0.8706124
201	0xbfd2946a	-1.6451542
202	0x3f6f09ba	0.93374217
203	0xbfe12adc	-1.7591205
204	0x3f55c779	0.83507496
205	0xbf2dd9e7	-0.6791062
206	0x3dfbe6a6	0.12299852
207	0x3f2c1697	0.6722197
208	0xbfe430e1	-1.7827417
209	0x3f2344b5	0.63776714
210	0xbeb9aafc	-0.36263263
211	0x3cc4a1b2	0.024002884
212	0xbee9b3f3	-0.45645103
213	0x3db1479c	0.086562365
214	0x3e9a17f2	0.30096394
215	0xbe247358	-0.16059625
216	0xbf76248d	-0.9614952
217	0xbf03d63d	-0.51498777
218	0x3fa26ebd	1.2690045
219	0xbf8f06cb	-1.1173948
220	0xbea374b2	-0.3192497
221	0xbf933b15	-1.1502405
222	0x3f0aff76	0.5429605
223	0x3ef73478	0.48282218
224	0x3f8bae0f	1.0912493
225	0xbff0c5db	-1.8810381
226	0xbf3ff397	-0.74981064
227	0x3e85f253	0.2616144
228	0x3ecab06b	0.3958772
229	0x3f8d0ef6	1.1020191
230	0x3f088243	0.53323764
231	0xbe906d7d	-0.28208533
232	0xc00a02c0	-2.1564178
233	0xbfb3f1cc	-1.4058166
234	0xbf3c6820	-0.7359638
235	0x3e363ab2	0.17795828
236	0x3f51662e	0.8179654
237	0xbe2713bf	-0.16316126
238	0xbf2fa593	-0.6861202
239	0x3e95a631	0.29228356

arith.constant1 f4 [16, 16]
0	0x3f14a0f2	0.58058083
1	0x3f10c5f3	0.56552047
2	0xbe01d9db	-0.12680762
3	0xbf41f457	-0.7576346
4	0xbea79fcd	-0.32739106
5	0x3f877200	1.0581665
6	0x3d27751e	0.040883176
7	0xbd044579	-0.032292817
8	0x3f390d5f	0.7228603
9	0xbf8a0960	-1.0784111
10	0x3ecac384	0.39602292
11	0x3f9a4480	1.2052155
12	0xbf8399fd	-1.0281368
13	0xbe107185	-0.14105804
14	0xbfa0aa8f	-1.255205
15	0xbf096e7d	-0.53684217
16	0xbfeefb42	-1.8670428
17	0x3e1af8bc	0.15133947
18	0x3f5858db	0.8451058
19	0x3f99765a	1.1989243
20	0xbf824b42	-1.0179217
21	0x3feb8759	1.840068
22	0x3f271d84	0.6527941
23	0xbfe22c67	-1.76698
24	0xbc2f0a48	-0.010683604
25	0x3f2c8f7f	0.6740646
26	0xbe8885b3	-0.26664504
27	0xbf5356a0	-0.82554054
28	0x3e97f2da	0.2967747
29	0xc012e86f	-2.2954366
30	0xc023bda4	-2.5584497
31	0xbf98c41f	-1.1934851
32	0x3feb85d4	1.8400216
33	0x3d99013b	0.07470938
34	0x401aa020	2.4160233
35	0x40196ac2	2.397141
36	0x3f776d22	0.966509
37	0x3fe8507a	1.814956
38	0xbf75f441	-0.96075827
39	0xbfa78573	-1.30876
40	0x3fa902dc	1.3203998
41	0xbf05c8f7	-0.52259773
42	0x3fad42d2	1.3536017
43	0xc0122003	-2.2832038
44	0x3f2dacb7	0.67841667
45	0xbef1b470	-0.47207975
46	0xbfff240a	-1.9932873
47	0xbfe759ef	-1.807432
48	0xbfc52d1b	-1.540439
49	0xbf41e01d	-0.75732595
50	0xbe81f64d	-0.25383225
51	0xbcf78d2f	-0.030218689
52	0x3fd25085	1.6430823
53	0xbfe417fe	-1.7819822
54	0xc007aeee	-2.1200519
55	0xbf8dab2f	-1.1067866
56	0xbfb89d53	-1.4423012
57	0xbfa91c18	-1.3211699
58	0x3f135b59	0.5756126
59	0x401a21ca	2.4083123
60	0xbe5853d4	-0.21125728
61	0xbf09dcba	-0.53852427
62	0x3f802c65	1.0013548
63	0x3fe1a5f7	1.7628773
64	0xbdba971b	-0.09110852
65	0xbf676cda	-0.9040047
66	0xc01bbb97	-2.4333246
67	0xc02ca573	-2.6975982
68	0xbf908dbf	-1.1293257
69	0xbf94942a	-1.1607716
70	0x4016bb33	2.3551757
71	0x3f82f674	1.0231462
72	0x3ebf3eb0	0.37352514
73	0xbf240010	-0.64062595
74	0xbf6e3308	-0.9304662
75	0x3f8da357	1.1065472
76	0x3fc56707	1.5422066
77	0xbea2bd42	-0.31785017
78	0x3fc7308c	1.556169
79	0x3f14312d	0.57887536
80	0xbfb94afc	-1.4476008
81	0xbf419999	-0.75624996
82	0xc007654d	-2.115558
83	0xc01d70c8	-2.4600086
84	0x3ee7165c	0.45134246
85	0xbf76e2f7	-0.9644007
86	0xbf75a65a	-0.9595696
87	0xbea13bf5	-0.31491056
88	0x3f199508	0.5999303
89	0xbf8c2dae	-1.095144
90	0x3f2346d1	0.6377993
91	0x4005fcc5	2.0935528
92	0xbee2eb2a	-0.4432004
93	0x3fd83d52	1.6893713
94	0x40133fe1	2.3007739
95	0x3fde6efb	1.7377619
96	0x401019e0	2.2515793
97	0xbea9703c	-0.3309344
98	0x3e74033d	0.2382936
99	0x3fff8fa0	1.9965706
100	0xbeb6ed65	-0.35727993
101	0xbfc9ea64	-1.5774655
102	0x3f254a4f	0.6456651
103	0xbf11f6e2	-0.5701734
104	0xbf8a29cf	-1.0794009
105	0xc012bab4	-2.2926455
106	0x3fb65d5b	1.424724
107	0x3f689ffc	0.90869117
108	0x3eaaddce	0.3337235
109	0xbf37e5de	-0.71835124
110	0xbe131939	-0.1436509
111	0x3fb72180	1.4307098
112	0xc02a0c26	-2.6569915
113	0xbdc3a955	-0.09553782
114	0xbfb82e32	-1.4389098
115	0xc007d18e	-2.1221652
116	0xbeee78cc	-0.46576536
117	0x3e5fadc3	0.21843629
118	0xbd94cf37	-0.072660856
119	0xbf825afa	-1.0184014
120	0x3ef27be8	0.47360158
121	0x3fa0c9da	1.25616
122	0xbfa02407	-1.2510995
123	0x400195c0	2.024765
124	0xbf0c90f6	-0.5490869
125	0xbf8b2d82	-1.0873263
126	0xbfe749bb	-1.8069376
127	0xbfa478de	-1.2849386
128	0xc002b968	-2.0425663
129	0x3f0b8c52	0.54510987
130	0xbf978f43	-1.1840595
131	0xbfb0eb78	-1.3821859
132	0xbfaefcf6	-1.3670948
133	0x3fe145fa	1.759948
134	0x3ff77144	1.9331441
135	0xbd861538	-0.06547016
136	0xbe4a3eaf	-0.19750474
137	0x3fad6e18	1.3549223
138	0xbf6ad90f	-0.91737455
139	0x3fde11d9	1.7349197
140	0xbe5b4899	-0.21414413
141	0xbfe1cedb	-1.7641252
142	0xbfbb0197	-1.460986
143	0xbffe5b99	-1.9871703
144	0x3e0ba79c	0.13638157
145	0x3f0567ae	0.5211133
146	0xbcfbefde	-0.030754026
147	0xbdd2b3c9	-0.102881975
148	0xbf20f597	-0.6287474
149	0x3f983321	1.1890603
150	0x3f79ce1f	0.9758014
151	0xbf2bbeff	-0.6708831
152	0x3fd4f5a3	1.6637462
153	0x3febde16	1.842715
154	0xbf2379f8	-0.63857985
155	0xbff34bec	-1.9007545
156	0x3f63121a	0.88699496
157	0xbf11ff9e	-0.57030666
158	0xbfbd4c9a	-1.4789002
159	0xc00bb1fc	-2.1827383
160	0xbfb163e0	-1.3858604
161	0xbfe9bc5f	-1.8260611
162	0xbff1a43e	-1.8878248
163	0xbfda3ead	-1.7050377
164	0xbf2b1f01	-0.66844183
165	0xbf8db424	-1.10706
166	0x4007a393	2.1193588
167	0x3f041040	0.51587296
168	0xbe4e7ceb	-0.2016484
169	0xbffb6c23	-1.9642376
170	0xbf1cba17	-0.6122145
171	0xbffdfda1	-1.9843026
172	0x40032eda	2.0497346
173	0xbff5df88	-1.9208841
174	0x3ffb3b74	1.9627519
175	0x3fdb18a0	1.711689
176	0xbfb1bc7c	-1.3885646
177	0x3f9c5059	1.221202
178	0xbf13d9aa	-0.57754004
179	0xc010edb2	-2.2645078
180	0x3dd5019c	0.104006976
181	0x4016cd81	2.356293
182	0xbf087c27	-0.5331444
183	0xbf262ca7	-0.64911884
184	0x3f876a21	1.0579263
185	0x3ff8c675	1.9435564
186	0xbecef4a9	-0.40421036
187	0x40076407	2.1154802
188	0x3d40fd98	0.047116846
189	0xbeb89ff9	-0.3605955
190	0xbf7f49e5	-0.9972213
191	0xc00e6186	-2.2247024
192	0x3fef658c	1.8702865
193	0xbfa29f6c	-1.2704902
194	0x3cbb782d	0.022884453
195	0x3fcbf650	1.5934544
196	0x400a1e77	2.1581094
197	0xbf5014d7	-0.812818
198	0xbff9febe	-1.9530866
199	0x3ddc57a3	0.10758903
200	0x3ec4fe1a	0.38475114
201	0xbf8f0421	-1.1173135
202	0x3fcf6a6b	1.6204351
203	0x3fb37bdf	1.4022177
204	0xbf4e323f	-0.8054542
205	0x3fcb081f	1.5861853
206	0x3ff7df2f	1.9364985
207	0x3fecbda1	1.849537
208	0x400296d9	2.040457
209	0xbe4fea67	-0.20304261
210	0x3e58a569	0.21156849
211	0x3f8410c2	1.0317614
212	0x3f85951b	1.0436128
213	0x3f2fab03	0.6862032
214	0xc000ad15	-2.010564
215	0x3e09cf98	0.13458097
216	0x3f62debe	0.8862113
217	0x3f5a26cd	0.85215455
218	0x3f702b92	0.93816483
219	0x3e215d01	0.15758134
220	0xbe985de3	-0.2975913
221	0x3fa41e42	1.2821734
222	0x3f56e149	0.8393751
223	0xbf98baf3	-1.1932052
224	0xbed55098	-0.4166305
225	0xbfc9df0d	-1.5771195
226	0xbe94ef7e	-0.29088968
227	0xbf20ae60	-0.62766075
228	0xbfbd656f	-1.479658
229	0xc017f0a4	-2.3740625
230	0x4001d3b3	2.028546
231	0xbfaba5f7	-1.3410023
232	0x3f172cd7	0.59052795
233	0xc017d58b	-2.3724086
234	0xbf620654	-0.88290906
235	0xbfc351a4	-1.525929
236	0x3fec9ce4	1.8485379
237	0xbfd80e1c	-1.6879306
238	0xbf9cbcd0	-1.2245121
239	0x3fbc8686	1.4728553
240	0x3f75c5cc	0.9600494
241	0xbf8ee612	-1.1163962
242	0xbf24b1bf	-0.6433372
243	0x3fe27314	1.7691369
244	0x401987df	2.398918
245	0x3f7b5432	0.98175347
246	0xc026a3f0	-2.603756
247	0x3f0825ca	0.5318266
248	0xbf362e14	-0.7116406
249	0x3fcb6606	1.589051
250	0x3fed3a12	1.8533347
251	0x3e3ca7ac	0.18423337
252	0xbef69886	-0.4816324
253	0x3f278784	0.65441155
254	0x3f8dcb03	1.1077579
255	0xbecf336b	-0.40468916

arith.constant2 f4 [1031, 16]
0	0x3de37ae2	0.111074224
1	0xbf156f85	-0.5837329
2	0xbe9b0253	-0.3027521
3	0xbc95e773	-0.01829884
4	0x3e7855e6	0.24251518
5	0x3e73e751	0.23818709
6	0xbd4de3d9	-0.05026612
7	0xbf14f525	-0.5818656
8	0x3ef95a03	0.48701486
9	0xbe0f40a5	-0.13989504
10	0x3eb4575e	0.35222906
11	0x3e2c9379	0.16853131
12	0x3ec9e91b	0.39435658
13	0xbe8bf769	-0.27337196
14	0xbc8df9c0	-0.017331004
15	0xbdc21cdf	-0.09478163
16	0x3c8e7b46	0.017392766
17	0x3d1d8aad	0.03846233
18	0xbca749c7	-0.020420922
19	0xbc1e0c40	-0.009646475
20	0xbc85743a	-0.016290773
21	0x3d47db53	0.04879315
22	0x3ca13402	0.01967812
23	0xbb66f3d0	-0.0035240538
24	0xbbbd3418	-0.0057740323
25	0xbd155a30	-0.036462963
26	0xbccb7cf3	-0.024839854
27	0xbd2a098d	-0.041513015
28	0x3ce14b2e	0.027501669
29	0xbb0a3200	-0.0021086931
30	0xbc7a67f4	-0.015283573
31	0xbc7ad0a8	-0.015308537
32	0x3e6a8422	0.22901967
33	0x3e3c29e1	0.1837535
34	0xbd6325ff	-0.055456158
35	0x3e9396ae	0.28825897
36	0x3e74c114	0.23901778
37	0xbe5b4fd0	-0.21417165
38	0xbe47de3c	-0.1951837
39	0x3d09631e	0.03354179
40	0xbf222c63	-0.6334898
41	0x3e03de67	0.12877809
42	0x3e1be73c	0.15224928
43	0x3f0d6707	0.5523533
44	0xbe75b94c	-0.23996466
45	0xbe5c4b1e	-0.2151303
46	0xbc8414bc	-0.016123168
47	0x3e4f500a	0.20245376
48	0xbd9f7b6e	-0.07787214
49	0xbe05262e	-0.13002846
50	0xbe8a7588	-0.27042794
51	0xbe03858c	-0.12843913
52	0x3d99c703	0.075086616
53	0x3e1bd0c7	0.15216361
54	0xbd91f431	-0.07126654
55	0xbe2ddfef	-0.16979955
56	0x3e64882d	0.22317572
57	0xbc74bbde	-0.014937369
58	0x3d9d9c73	0.07695856
59	0x3dbe9db6	0.09307425
60	0x3e084212	0.13306454
61	0xbdf0c456	-0.11756198
62	0xbcd1c014	-0.025604285
63	0x3c961e05	0.018324861
64	0xbd1aecd9	-0.03782353
65	0xbd2d97a2	-0.042380936
66	0xbd3a8264	-0.045534506
67	0xbd2922c0	-0.041292906
68	0x3cd34308	0.025788799
69	0xbd63803b	-0.055542212
70	0x3bedc712	0.007256397
71	0xbe74efcb	-0.23919599
72	0x3e32ea12	0.17472103
73	0xbd8a3b33	-0.067495726
74	0x3d7fec2d	0.062481094
75	0x3dada552	0.08478798
76	0x3d9a9eec	0.07549843
77	0xbdaba739	-0.083815046
78	0x3b1dfc96	0.0024106852
79	0xbb268a70	-0.0025412105
80	0x3e1086e6	0.1411396
81	0xbe2f99f1	-0.17148568
82	0xbdbe9e23	-0.09307506
83	0x3d814196	0.06311338
84	0x3dbf9135	0.09353868
85	0xbd03b373	-0.032153558
86	0xbe065a80	-0.1312046
87	0xbea0220d	-0.3127598
88	0x3dbb866a	0.09156497
89	0xbe048f18	-0.12945211
90	0x3e282b73	0.16422825
91	0x3e065249	0.13117327
92	0x3c931639	0.017954933
93	0xbc4a743c	-0.012356814
94	0x3d918b69	0.071066685
95	0x3dfbbd58	0.12291974
96	0x3daba410	0.08380902
97	0xbd18b871	-0.037285272
98	0xbe1877a0	-0.14889383
99	0x3c469755	0.012121041
100	0xbbfd20f9	-0.007724878
101	0x3d28a45f	0.04117238
102	0xbda67ea1	-0.08129621
103	0xbdfd69bb	-0.12373682
104	0xbd41fce8	-0.04736033
105	0xbe6662c4	-0.22498614
106	0x3e6e31dc	0.23261207
107	0x3e4fcaca	0.20292202
108	0xbd8a2239	-0.06744809
109	0xbd2f789c	-0.04283963
110	0x3dc92198	0.098208606
111	0x3e1a920e	0.15094778
112	0x3d35626b	0.04428331
113	0xbc946ffa	-0.0181198
114	0xbcaba090	-0.020950586
115	0x3da500ba	0.08056779
116	0x3dc22114	0.094789654
117	0x3cffb826	0.031215739
118	0xbde32443	-0.11090901
119	0xbc823624	-0.015894957
120	0xbc187428	-0.009305038
121	0x3d11e3db	0.03561769
122	0x3d18a1f1	0.037263814
123	0x3dab3aab	0.083607994
124	0x3c109980	0.00882566
125	0xbd22c947	-0.039742734
126	0x3cd014fd	0.025400633
127	0xbd644c82	-0.055737026
128	0x3e424596	0.18971857
129	0xbe2b14e8	-0.16707194
130	0x3e3bbd7d	0.18334003
131	0x3e334073	0.17505054
132	0x3e19d933	0.15024261
133	0xbd3672bf	-0.044543024
134	0xbdc6f5d0	-0.09714854
135	0xbe9755fe	-0.29557794
136	0x3af59bcb	0.0018738447
137	0xbe88ed6f	-0.26743647
138	0x3e84bd56	0.25925702
139	0xbcddc4a3	-0.027071303
140	0xbcec6fb5	-0.02886186
141	0x3d9768ba	0.07393022
142	0x3d34f3c2	0.044177778
143	0x3dcad020	0.09902978
144	0x3d150c78	0.036388844
145	0xbdb71748	-0.089399874
146	0xbccd8972	-0.025089953
147	0x3d315815	0.043296892
148	0x3d1c344a	0.038135804
149	0x3d8d2b8e	0.06893073
150	0x3a6499ab	0.0008720408
151	0xbd911f38	-0.07086033
152	0x3c94cede	0.018165048
153	0xbd2fad9b	-0.042890172
154	0x3d5c6244	0.05380465
155	0xbbd67195	-0.0065443018
156	0x3d9c04a2	0.07618071
157	0xbdc3782a	-0.09544404
158	0x3cadb6e9	0.021205382
159	0xbc59c55b	-0.013291682
160	0xbbe7a573	-0.0070692836
161	0xbda051d8	-0.078281105
162	0xbd0d4321	-0.034487847
163	0xbc101d59	-0.0087960595
164	0x3db2d2ec	0.087316364
165	0x3d9a1bd9	0.07524843
166	0xbd883f84	-0.0665274
167	0xbce5d410	-0.02805522
168	0xbd894eda	-0.06704493
169	0x3c785794	0.015157599
170	0x3d759460	0.059955955
171	0x3db10f02	0.08645441
172	0xbd11eae3	-0.035624396
173	0xbcfe2ff4	-0.031028725
174	0x3d5ce418	0.053928465
175	0x3c920668	0.01782532
176	0x3d007c1a	0.031368352
177	0xbdae2a44	-0.08504155
178	0x3d275103	0.040848743
179	0x3de1758c	0.110087484
180	0x3d697d41	0.057004217
181	0x3d6039b8	0.054742545
182	0xbd55396d	-0.05205672
183	0xbe48e6a8	-0.19619238
184	0x3d92a686	0.07160668
185	0xbc983b24	-0.018582888
186	0x3db3ea5f	0.08784937
187	0xbca6c09c	-0.020355515
188	0x3ba571e3	0.0050489767
189	0xbd322b7a	-0.043498494
190	0xbd5af47e	-0.053455822
191	0xbd7b0612	-0.061285086
192	0xbce4f396	-0.027948182
193	0xbda7653b	-0.08173605
194	0x3d34f301	0.04417706
195	0xbc834fd9	-0.016029285
196	0x3ca748b3	0.020420408
197	0xbe0869bc	-0.13321584
198	0xbc9f3970	-0.019436568
199	0xbe898ca5	-0.26865116
200	0x3e1daf66	0.1539894
201	0xbdb9abfd	-0.09066007
202	0x3d93f471	0.07224358
203	0x3dc4d0a3	0.09610107
204	0xbbe81097	-0.007082056
205	0xbc2346f7	-0.00996565
206	0xbb0bb18e	-0.0021315548
207	0x3cddf182	0.027092699
208	0xbc76220a	-0.015022764
209	0x385acc40	5.2165473e-05
210	0x3d170b38	0.036875933
211	0xbbc28ac0	-0.0059369504
212	0x3bb3ac76	0.0054832054
213	0x3b8413ee	0.004030696
214	0xbbdf2bc3	-0.0068106367
215	0xbd76f172	-0.060288854
216	0x3e0901e8	0.13379633
217	0x3bb392fd	0.005480169
218	0xbcd03384	-0.02541519
219	0x3c8b05f6	0.016970616
220	0x3e1957d8	0.14974916
221	0x3d0c3bad	0.0342366
222	0x3d30ff01	0.04321194
223	0xbd829545	-0.06376127
224	0x3f38aa3d	0.72134763
225	0xbedce79f	-0.43145463
226	0xbdd08d9d	-0.101832606
227	0x3f5db083	0.8659746
228	0x3f524eab	0.8215129
229	0xbf275ba2	-0.65374196
230	0xbf5b26b9	-0.8560596
231	0x3edce131	0.43140557
232	0xbf47a70b	-0.7798926
233	0xbefab51b	-0.48966298
234	0x3f3e8170	0.74416256
235	0x3f483590	0.7820673
236	0xbf40adbe	-0.7526511
237	0x3f2f9909	0.6859289
238	0x3f40fbbc	0.75384116
239	0x3f30a702	0.69004834
240	0x3d64f357	0.05589613
241	0xbd57a39d	-0.05264627
242	0x3d77fc88	0.060543567
243	0xbca6dbbc	-0.02036845
244	0x3dd72ccb	0.105065905
245	0xbd80634a	-0.06268938
246	0xbde43461	-0.11142803
247	0xbe4ad25b	-0.19806807
248	0x3e9211e4	0.28529274
249	0x3a756482	0.0009360985
250	0x3d96854b	0.07349642
251	0x3ba553bb	0.005045382
252	0x3d23f52b	0.040028732
253	0x3df96166	0.121767804
254	0xbbb9bbba	-0.0056681307
255	0x3c86b8f3	0.016445613

arith.constant3 f4 [16]
0	0x3cecb7f6	0.028896313
1	0x3eb0afd3	0.34509143
2	0x3e8d3219	0.27577284
3	0x3e9b30b3	0.30310592
4	0x3eb36ad7	0.3504245
5	0x3e6e0445	0.23243816
6	0x3e83624d	0.25660935
7	0x3e87fa69	0.26558235
8	0x3e82c6f1	0.25542405
9	0x3ebe20db	0.37134442
10	0x3e924b0d	0.28572884
11	0x3edb24d4	0.42801535
12	0x3ecf5928	0.40497708
13	0x3eb82391	0.35964635
14	0x3e6abe0d	0.22924061
15	0x3ef4dbe6	0.4782402

arith.constant4 f4 [15]
0	0xbe541994	-0.20712882
1	0x3c797df1	0.015227781
2	0x3ddf9208	0.10916525
3	0xbcea57ac	-0.028606258
4	0xbe00f7d1	-0.12594534
5	0x3d7a05a7	0.061040547
6	0x3dd1c4d5	0.10242621
7	0x3cc68441	0.024232985
8	0xbe15efb0	-0.14642215
9	0xbd576140	-0.05258298
10	0xbdd2932a	-0.102819756
11	0x3e549615	0.20760377
12	0xbe01283e	-0.12613007
13	0x3d913534	0.07090226
14	0x3e300118	0.17187917
